…
x = UpSampling2D((2, 2))(x)\r\ndecoded = Conv2D(1, (3, 3), activation=&#39;sigmoid&#39;, padding=&#39;same&#39;)(x)\r\n\r\nautoencoder = Model(input_img, decoded)\r\nautoencoder.compile(optimizer=&#39;adadelta&#39;, loss=&#39;binary_crossentropy&#39;)\r\n\r\nautoencoder.summary()\r\n```\r\nand the model summary output is\r\n```\r\nModel: &quot;model_14&quot;\r\n_________________________________________________________________\r\nLayer (type)                 Output Shape              Param #   \r\n=================================================================\r\ninput_18 (InputLayer)        (None, 62, 47, 3)         0         \r\n_________________________________________________________________\r\nconv2d_103 (Conv2D)          (None, 62, 47, 16)        448       \r\n_________________________________________________________________\r\nmax_pooling2d_45 (MaxPooling (None, 31, 24, 16)        0         \r\n_________________________________________________________________\r\nconv2d_104 (Conv2D)          (None, 31, 24, 8)         1160      \r\n_________________________________________________________________\r\nmax_pooling2d_46 (MaxPooling (None, 16, 12, 8)         0         \r\n_________________________________________________________________\r\nconv2d_105 (Conv2D)          (None, 16, 12, 8)         584       \r\n_________________________________________________________________\r\nmax_pooling2d_47 (MaxPooling (None, 8, 6, 8)           0         \r\n_________________________________________________________________\r\nconv2d_106 (Conv2D)          (None, 8, 6, 8)           584       \r\n_________________________________________________________________\r\nup_sampling2d_42 (UpSampling (None, 16, 12, 8)         0         \r\n_________________________________________________________________\r\nconv2d_107 (Conv2D)          (None, 16, 12, 8)         584       \r\n_________________________________________________________________\r\nup_sampling2d_43 (UpSampling (None, 32, 24, 8)         0         \r\n_________________________________________________________________\r\nconv2d_108 (Conv2D)          (None, 30, 22, 16)        1168      \r\n_________________________________________________________________\r\nup_sampling2d_44 (UpSampling (None, 60, 44, 16)        0         \r\n_________________________________________________________________\r\nconv2d_109 (Conv2D)          (None, 60, 44, 1)         145       \r\n=================================================================\r\nTotal params: 4,673\r\nTrainable params: 4,673\r\nNon-trainable params: 0\r\n____________________________\r\n```\r\n\r\n\r\nWhen I try to train\r\n```\r\n#train for 100 epochs\r\nhistory = autoencoder.fit(x_train, x_train,epochs=100,batch_size=256, shuffle=True, validation_data=(x_test, x_test))\r\n```\r\nI get this er
…
s=True, input_shape=(input_params, 1)))\r\n    model.add(LeakyReLU(alpha=2))\r\n    model.add(LSTM(100, return_sequences=True))\r\n    model.add(LeakyReLU(alpha=2))\r\n    model.add(LSTM(100))\r\n    model.add(LeakyReLU(alpha=2))\r\n    model.add(Dense(2, activation=&#39;relu&#39;))\r\n    model.add(Dense(1, activation=&#39;sigmoid&#39;))\r\n    \r\n    model.compile(optimizer=&#39;adam&#39;,\r\n                  loss=&#39;binary_crossentropy&#39;,\r\n                  metrics=[&#39;accuracy&#39;])\r\n\r\n`\r\n\r\nthese are the parameters of the model: \r\n\r\n    lstm_1 (LSTM)                (None, 29, 100)           40800     \r\n    \r\n    _________________________________________________________________\r\n    leaky_re_lu_1 (LeakyReLU)    (None, 29, 100)           0         \r\n    _________________________________________________________________\r\n    lstm_2 (LSTM)                (None, 29, 100)           80400     \r\n    _________________________________________________________________\r\n    leaky_re_lu_2 (LeakyReLU)    (None, 29, 100)           0         \r\n    _________________________________________________________________\r\n    lstm_3 (LSTM)                (None, 100)               80400     \r\n    _________________________________________________________________\r\n    leaky_re_lu_3 (LeakyReLU)    (None, 100)               0         \r\n    _________________________________________________________________\r\n    dense_1 (Dense)              (None, 2)                 202       \r\n    _________________________________________________________________\r\n    dense_2 (Dense)              (None, 1)                 3         \r\n    =================================================================\r\n    Total params: 201,805\r\n    Trainable params: 201,805\r\n    Non-trainable params: 0\r\n\r\nAnyone can help me to fix this?","link":"https://stackoverflow.com/questions/58291375/tensorflow-throw-value-error-when-checking-input-lstm-1","title":"Tensorflow throw value error when checking input (lstm_1)"},{"tag
…
