…
the `binary_crossentropy` loss:\r\n\r\n```python\r\nclf_model = create_model()\r\nclf_model.compile(optimizer=Adam(),\r\n                  loss=&#39;categorical_crossentropy&#39;,\r\n                  metrics=[&#39;accuracy&#39;, &#39;categorical_crossentropy&#39;])\r\n```\r\n\r\nThe output of `clf_model.summary()` is:\r\n\r\n```\r\nModel: &quot;model&quot;\r\n_________________________________________________________________\r\nLayer (type)                 Output Shape              Param #   \r\n=================================================================\r\ninput_1 (InputLayer)         [(None, 6, 16, 16, 16, 3) 0         \r\n_________________________________________________________________\r\nlambda (Lambda)              (None, 16, 16, 16, 3)     0         \r\n_________________________________________________________________\r\nconv3d (Conv3D)              (None, 8, 8, 8, 64)       98368     \r\n_________________________________________________________________\r\nre_lu (ReLU)                 (None, 8, 8, 8, 64)       0         \r\n_________________________________________________________________\r\nglobal_average_pooling3d (Gl (None, 64)                0         \r\n_________________________________________________________________\r\nlambda_1 (Lambda)            (None, 384)               0         \r\n_________________________________________________________________\r\nlambda_2 (Lambda)            (None, 1, 384)            0         \r\n_________________________________________________________________\r\nconv1d (Conv1D)              (None, 1, 1)              385       \r\n_________________________________________________________________\r\nre_lu_1 (ReLU)               (None, 1, 1)              0         \r\n_________________________________________________________________\r\nlambda_3 (Lambda)            (None, 1)                 0         \r\n_________________________________________________________________\r\ndense (Dense)                (None, 2)                 4         \r\n=================================================================\r\nTotal params: 98,757\r\nTrainable params: 98,757\r\nNon-trainable params: 0\r\n```\r\n\r\n3. **Training**\r\n\r\nThe model is trained for 500 epochs as follows:\r\n\r\n```python\r\ntrain_ds = make_tfdataset(for_training=True)\r\n\r\nhistory = clf_model.fit(train_ds,\r\n                        epochs=500,\r\n         
…
