…
 (~81) on the 32 features of the conv1d instead of the 3 features of the input?\r\n\r\n\r\n# Example of summary:\r\n\r\nThe first LSTM will take an input shape of `(None, 38,32)`. This means this LSTM will process:\r\n\r\n- 38 steps   \r\n- 32 features   \r\n\r\nThe convolutions are discarding border steps and the maxpooling is halving the steps. \r\n\r\n```\r\n_________________________________________________________________\r\nLayer (type)                 Output Shape              Param #   \r\n=================================================================\r\nconv1d (Conv1D)              (None, 79, 32)            320       \r\n_________________________________________________________________\r\nconv1d_1 (Conv1D)            (None, 77, 32)            3104      \r\n_________________________________________________________________\r\ndropout (Dropout)            (None, 77, 32)            0         \r\n_________________________________________________________________\r\nmax_pooling1d (MaxPooling1D) (None, 38, 32)            0         \r\n_________________________________________________________________\r\nlstm (LSTM)                  (None, 38, 128)           82432     \r\n_________________________________________________________________\r\ndropout_1 (Dropout)          (None, 38, 128)           0         \r\n_________________________________________________________________\r\nlstm_1 (LSTM)                (None, 38, 64)            49408     \r\n_________________________________________________________________\r\nlstm_2 (LSTM)                (None, 32)                12416     \r\n_________________________________________________________________\r\ndense (Dense)                (None, 16)                528       \r\n_________________________________________________________________\r\ndropout_2 (Dropout)          (None, 16)                0         \r\n_________________________________________________________________\r\ndense_1 (Dense)              (None, 1)                 17        \r\n=================================================================\r\nTotal params: 148,225\r\nTrainable params: 148,225\r\nNon-trainable params: 0\r\n_________________________________________________________________```\r\n\r\n","link":"https://stackoverflow.com/questions/58069629/how-does-the-lstm-know-number-of-time-steps-and-features-in-an-conv1d-lstm-netwo/58069816#58069816","title"
…
