…
x, output], axis =1)\r\n\r\n#layers after concatenate \r\n\r\nhidden1 = Dense(10, activation=&#39;relu&#39;)(merge)\r\nhidden2 = Dense(10, activation=&#39;relu&#39;)(hidden1)\r\noutput = Dense(2, activation=&#39;sigmoid&#39;)(hidden2)\r\nmodel = Model(inputs=[device_id,visible], outputs=output)\r\n\r\n```\r\n\r\nhere is a summary of the model:\r\n\r\n```\r\n\r\nLayer (type)                    Output Shape         Param #     Connected to                     \r\n==================================================================================================\r\nX_train (InputLayer)            (None, 3, 1, 1)      0                                            \r\n__________________________________________________________________________________________________\r\ndense_2 (Dense)                 (None, 3, 1, 10)     20          X_train[0][0]                    \r\n__________________________________________________________________________________________________\r\ndata_tf (InputLayer)            (None, 1, 1)         0                                            \r\n__________________________________________________________________________________________________\r\ndense_3 (Dense)                 (None, 3, 1, 20)     220         dense_2[0][0]                    \r\n__________________________________________________________________________________________________\r\nembedding_1 (Embedding)         (None, 1, 1, 22)     228272      data_tf[0][0]                    \r\n__________________________________________________________________________________________________\r\ndense_4 (Dense)                 (None, 3, 1, 10)     210         dense_3[0][0]                    \r\n__________________________________________________________________________________________________\r\ndense_1 (Dense)                 (None, 1, 1, 2)      46          embedding_1[0][0]                \r\n__________________________________________________________________________________________________\r\ndense_5 (Dense)                 (None, 3, 1, 2)      22          dense_4[0][0]                    \r\n__________________________________________________________________________________________________\r\nconcatenate_1 (Concatenate)     (None, 4, 1, 2)      0           dense_1[0][0]                    \r\n                                                                 dense_5[0][0]                    \r\n__________________________________________________________________________________________________\r\ndense_6 (Dense)                 (None, 4, 1, 10)     30          concatenate_1[0][0]              \r\n__________________________________________________________________________________________________\r\ndense_7 (Dense)                 (None, 4, 1, 10)     110         dense_6[0][0]                    \r\n__________________________________________________________________________________________________\r\ndense_8 (Dense)                 (None, 4, 1, 2)      22          dense_7[0][0]                    \r\n==================================================================================================\r\nTotal params: 228,952\r\nTrainable params: 228,952\r\nNon-trainable params: 0\r\n__________________________________________________________________________________________________\r\nNone\r\n```\r\nthen \r\n\r\n```\r\nmodel.compile(loss=&#39;binary_cr
…
