…
h ```import keras``` only \r\n\r\n```\r\nUsing TensorFlow backend.\r\nx_train shape: (60000, 28, 28, 1)\r\n60000 train samples\r\n10000 test samples\r\n2019-09-20 11:26:17.534247: I tensorflow/core/platform/cpu_feature_guard.cc:142] Your CPU supports instructions that this TensorFlow binary was not compiled to use: AVX2 FMA\r\nModel: &quot;sequential_1&quot;\r\n_________________________________________________________________\r\nLayer (type)                 Output Shape              Param #   \r\n=================================================================\r\nconv2d_1 (Conv2D)            (None, 26, 26, 32)        320       \r\n_________________________________________________________________\r\nconv2d_2 (Conv2D)            (None, 24, 24, 64)        18496     \r\n_________________________________________________________________\r\nmax_pooling2d_1 (MaxPooling2 (None, 12, 12, 64)        0         \r\n_________________________________________________________________\r\ndropout_1 (Dropout)          (None, 12, 12, 64)        0         \r\n_________________________________________________________________\r\nflatten_1 (Flatten)          (None, 9216)              0         \r\n_________________________________________________________________\r\ndense_1 (Dense)              (None, 128)               1179776   \r\n_________________________________________________________________\r\ndropout_2 (Dropout)          (None, 128)               0         \r\n_________________________________________________________________\r\ndense_2 (Dense)              (None, 10)                1290      \r\n=================================================================\r\nTotal params: 1,199,882\r\nTrainable params: 1,199,882\r\nNon-trainable params: 0\r\n_________________________________________________________________\r\nTrain on 60000 samples, validate on 10000 samples\r\nEpoch 1/1\r\n60000/60000 [==============================] - 83s 1ms/step - loss: 0.2724 - accuracy: 0.9155 - val_l
…
