…
 getData()\r\n      save_data(X_train, X_test, Y_train, Y_test)\r\n  \r\n  siamese_model(X_train, X_test, Y_train, Y_test)\r\n  \r\n\r\n\r\nif __name__ == &#39;__main__&#39;:\r\n  main()\r\n```\r\nAnd this is the output:\r\n```\r\nModel: &quot;model_19&quot;\r\n__________________________________________________________________________________________________\r\nLayer (type)                    Output Shape         Param #     Connected to                     \r\n==================================================================================================\r\ninput_37 (InputLayer)           (None, 1, 200000)    0                                            \r\n__________________________________________________________________________________________________\r\ninput_38 (InputLayer)           (None, 1, 200000)    0                                            \r\n__________________________________________________________________________________________________\r\ndropout_19 (Dropout)            (None, 1, 200000)    0           input_37[0][0]                   \r\n                                                                 input_38[0][0]                   \r\n__________________________________________________________________________________________________\r\nconcatenate_19 (Concatenate)    (None, 1, 400000)    0           dropout_19[0][0]                 \r\n                                                                 dropout_19[1][0]                 \r\n__________________________________________________________________________________________________\r\ngru_38 (GRU)                    (None, 20)           24001260    concatenate_19[0][0]             \r\n__________________________________________________________________________________________________\r\ndense_19 (Dense)                (None, 1)            21          gru_38[0][0]                     \r\n==================================================================================================\r\nTotal params: 24,001,281\r\nTrainable params: 24,001,281\r\nNon-trainable params: 0\r\n__________________________________________________________________________________________________\r\nEpoch 1/40\r\n188/188 [==============================] - 4s 22
…
 = []\r\n    B = append(B, A[0])\r\n    for i in range(1, len(A)):\r\n        B = insert(B, A[i], i, A)\r\n    return str(B)\r\n        \r\ndef insert(B, k, hi, A):\r\n    print(B, k, hi)\r\n    for x in range(hi-1, -1, -1):\r\n        if B[x] &lt;= k:\r\n            B = append(B, k)\r\n            return B\r\n        B = append(B, A[x])\r\n    B[0] = k \r\n    return B\r\n        \r\nprint(insertionSort([2,4,6,8,10,1,3,5,7,9]))\r\n```\r\n\r\nHowever after the third or forth element in the list it begins adding all the items to the end of the list in reverse order\r\n\r\n```\r\n\r\n[2] 4 1\r\n[2, 4] 6 2\r\n[2, 4, 6] 8 3\r\n[2, 4, 6, 8] 10 4\r\n[2, 4, 6, 8, 10] 1 5\r\n[1, 4, 6, 8, 10, 10, 8, 6, 4, 2] 3 6\r\n[1, 4, 6, 8, 10, 10, 8, 6, 4, 2, 1, 10, 8, 6, 4, 3] 5 7\r\n[1, 4, 6, 8, 10, 10, 8, 6, 4, 2, 1, 10, 8, 6, 4, 3, 3, 1, 10, 8, 6, 5] 7 8\r\n[1, 4, 6, 8, 10, 10, 8, 6, 4, 2, 1, 10, 8, 6, 4, 3, 3, 1, 10, 8, 6, 5, 7] 9 9\r\n[1, 4, 6, 8, 10, 10, 8, 6, 4, 2, 1, 10, 8, 6, 4, 3, 3, 1, 10, 8, 6, 5, 7, 9]\r\n\r\n```\r\n\r\nI cannot wrap my head around why this is wrong.\r\n\r\nThanks dearly to anyone who can help.","link":"https://stackoverflow.com/questions/58438827/constructive-insertion-sort","title":"Constructive Insertion Sort"},{"tags":["scala"],"comments":[{"owner":{"reputation":10681,"user_id":7662670,"user_t
…
