…
del(input_fields, output_field)\r\nU_net.summary()\r\n\r\nU_net.compile(optimizer=&quot;RMSProp&quot;, loss=&quot;mse&quot;)#, metrics=[&quot;accuracy&quot;])\r\n\r\nU_net.fit(X_train, y_train)\r\n```\r\nConcerning the U_net.summary() the output is : \r\n```\r\n__________________________________________________________________________________________________\r\nLayer (type)                    Output Shape         Param #     Connected to                     \r\n==================================================================================================\r\ninput_1 (InputLayer)            (None, 6, 128, 128)  0                                            \r\n__________________________________________________________________________________________________\r\nconv2d_1 (Conv2D)               (None, 32, 128, 128) 1760        input_1[0][0]                    \r\n__________________________________________________________________________________________________\r\nf32 (Activation)                (None, 32, 128, 128) 0           conv2d_1[0][0]                   \r\n__________________________________________________________________________________________________\r\nconv2d_2 (Conv2D)               (None, 32, 128, 128) 9248        f32[0][0]                        \r\n__________________________________________________________________________________________________\r\ns32 (Activation)                (None, 32, 128, 128) 0           conv2d_2[0][0]                   \r\n__________________________________________________________________________________________________\r\nmax_pooling2d_1 (MaxPooling2D)  (None, 32, 64, 64)   0           s32[0][0]                        \r\n__________________________________________________________________________________________________\r\nconv2d_3 (Conv2D)               (None, 64, 64, 64)   18496       max_pooling2d_1[0][0]            \r\n__________________________________________________________________________________________________\r\nactivation_1 (Activation)       (None, 64, 64, 64)   0           conv2d_3[0][0]                   \r\n__________________________________________________________________________________________________\r\nconv2d_4 (Conv2D)               (None, 64, 64, 64)   36928       activation_1[0][0]               \r\n__________________________________________________________________________________________________\r\nactivation_2 (Activation)       (None, 64, 64, 64)   0           conv2d_4[0][0]                   \r\n__________________________________________________________________________________________________\r\nmax_pooling2d_2 (MaxPooling2D)  (None, 64, 32, 32)   0           activation_2[0][0]               \r\n__________________________________________________________________________________________________\r\nconv2d_5 (Conv2D)               (None, 128, 32, 32)  73856       max_pooling2d_2[0][0]            \r\n__________________________________________________________________________________________________\r\nactivation_3 (Activation)       (None, 128, 32, 32)  0           conv2d_5[0][0]                   \r\n__________________________________________________________________________________________________\r\nconv2d_6 (Conv2D)               (None, 128, 32, 32)  147584      activation_3[0][0]               \r\n__________________________________________________________________________________________________\r\nactivation_4 (Activation)       (None, 128, 32, 32)  0           conv2d_6[0][0]                   \r\n__________________________________________________________________________________________________\r\nup_sampling2d_1 (UpSampling2D)  (None, 128, 64, 64)  0           activation_4[0][0]               \r\n__________________________________________________________________________________________________\r\nconv2d_7 (Conv2D)               (None, 64, 64, 64)   32832       up_sampling2d_1[0][0]            \r\n__________________________________________________________________________________________________\r\nconcatenate_1 (Concatenate)     (None, 64, 64, 64)   0           activation_2[0][0]               \r\n                                                                 conv2d_7[0][0]                   \r\n__________________________________________________________________________________________________\r\nconv2d_8 (Conv2D)               (None, 64, 64, 64)   36928       concatenate_1[0][0]              \r\n__________________________________________________________________________________________________\r\nactivation_5 (Activation)       (None, 64, 64, 64)   0           conv2d_8[0][0]                   \r\n__________________________________________________________________________________________________\r\nconv2d_9 (Conv2D)               (None, 64, 64, 64)   36928       activation_5[0][0]               \r\n__________________________________________________________________________________________________\r\nactivation_6 (Activation)       (None, 64, 64, 64)   0           conv2d_9[0][0]                   \r\n__________________________________________________________________________________________________\r\nup_sampling2d_2 (UpSampling2D)  (None, 64, 128, 128) 0           activation_6[0][0]               \r\n__________________________________________________________________________________________________\r\nconv2d_10 (Conv2D)              (None, 32, 128, 128) 8224        up_sampling2d_2[0][0]            \r\n__________________________________________________________________________________________________\r\nconcatenate_2 (Concatenate)     (None, 32, 128, 128) 0           s32[0][0]                        \r\n                                                                 conv2d_10[0][0]                  \r\n__________________________________________________________________________________________________\r\nconv2d_11 (Conv2D)              (None, 32, 128, 128) 9248        concatenate_2[0][0]              \r\n__________________________________________________________________________________________________\r\nactivation_7 (Activation)       (None, 32, 128, 128) 0           conv2d_11[0][0]                  \r\n__________________________________________________________________________________________________\r\nconv2d_12 (Conv2D)              (None, 32, 128, 128) 9248        activation_7[0][0]               \r\n__________________________________________________________________________________________________\r\nactivation_8 (Activation)       (None, 32, 128, 128) 0           conv2d_12[0][0]                  \r\n__________________________________________________________________________________________________\r\nconv2d_13 (Conv2D)              (None, 1, 128, 128)  33          activation_8[0][0]               \r\n__________________________________________________________________________________________________\r\nactivation_9 (Activation)       (None, 1, 128, 128)  0           conv2d_13[0][0]                  \r\n==================================================================================================\r\nTotal params: 421,313\r\nTrainable params: 421,313\r\nNon-trainable params: 0\r\n```\r\n\r\nThe network is built and \r\n\r\n    X_train.shape = (576, 6, 128, 128)\r\n    y_train.shape = (576, 1, 128, 128)\r\n\r\nBut during the training I receive thi
…
