…
link":"https://stackoverflow.com/users/10789130/vaibhavi-s"},"comment_count":0,"delete_vote_count":0,"close_vote_count":0,"is_answered":false,"view_count":21,"favorite_count":0,"down_vote_count":0,"up_vote_count":0,"answer_count":0,"score":0,"last_activity_date":1570987219,"creation_date":1570977100,"last_edit_date":1570987219,"question_id":58364539,"share_link":"https://stackoverflow.com/q/58364539","body_markdown":"    Layer (type)                 Output Shape              Param #   \r\n    =================================================================\r\n    conv2d_1 (Conv2D)            (None, 3, 32, 96)         2688      \r\n    _________________________________________________________________\r\n    activation_1 (Activation)    (None, 3, 32, 96)         0         \r\n    _________________________________________________________________\r\n    conv2d_2 (Conv2D)            (None, 3, 32, 96)         83040     \r\n    _________________________________________________________________\r\n    activation_2 (Activation)    (None, 3, 32, 96)         0         \r\n    _________________________________________________________________\r\n    conv2d_3 (Conv2D)            (None, 2, 16, 96)         83040     \r\n    _________________________________________________________________\r\n    dropout_1 (Dropout)          (None, 2, 16, 96)         0         \r\n    _________________________________________________________________\r\n    conv2d_4 (Conv2D)            (None, 2, 16, 192)        166080    \r\n    _________________________________________________________________\r\n    activation_3 (Activation)    (None, 2, 16, 192)        0         \r\n    _________________________________________________________________\r\n    conv2d_5 (Conv2D)            (None, 2, 16, 192)        331968    \r\n    _________________________________________________________________\r\n    activation_4 (Activation)    (None, 2, 16, 192)        0         \r\n    _________________________________________________________________\r\n    conv2d_6 (Conv2D)            (None, 1, 8, 192)         331968    \r\n    _________________________________________________________________\r\n    dropout_2 (Dropout)          (None, 1, 8, 192)         0         \r\n    _________________________________________________________________\r\n    conv2d_7 (Conv2D)            (None, 1, 8, 192)         331968    \r\n    _________________________________________________________________\r\n    activation_5 (Activation)    (None, 1, 8, 192)         0         \r\n    _________________________________________________________________\r\n    conv2d_8 (Conv2D)            (None, 1, 8, 192)         37056     \r\n    _________________________________________________________________\r\n    activation_6 (Activation)    (None, 1, 8, 192)         0         \r\n    _________________________________________________________________\r\n    conv2d_9 (Conv2D)            (None, 1, 8, 10)          1930      \r\n    _________________________________________________________________\r\n    global_average_pooling2d_1 ( (None, 10)                0         \r\n    _________________________________________________________________\r\n    activation_7 (Activation)    (None, 10)                0         \r\n    =================================================================\r\n    Total params: 1,369,738\r\n    Trainable params: 1,369,738\r\n    Non-trainable params: 0\r\n    _________________________________________________________________\r\n    None\r\n\r\n**ValueError:**\r\n \r\n\r\n&gt; the number of input channels in the kernel should specify the number\r\n&gt; of channels of 1 g
…
