…
ity_date":1570808285,"creation_date":1570740042,"question_id":58330770,"share_link":"https://stackoverflow.com/q/58330770","body_markdown":"I am running into a very odd error with Pytorch in which I am synthesizing video using the following model. I am trying to apply transfer learning to the encoder only. To do this I have frozen the weights of the the generator with ```requires_grad = False``` and have done the opposite for the encoder. \r\n\r\nHere is my model:\r\n```\r\nautoencoder(\r\n  (generator): VideoGenerator(\r\n    (recurrent): GRUCell(10, 10)\r\n    (main): Sequential(\r\n      (0): ConvTranspose2d(64, 512, kernel_size=(4, 4), stride=(1, 1), bias=False)\r\n      (1): BatchNorm2d(512, eps=1e-05, momentum=0.1, affine=True, track_running_stats=True)\r\n      (2): ReLU(inplace)\r\n      (3): ConvTranspose2d(512, 256, kernel_size=(4, 4), stride=(2, 2), padding=(1, 1), bias=False)\r\n      (4): BatchNorm2d(256, eps=1e-05, momentum=0.1, affine=True, track_running_stats=True)\r\n      (5): ReLU(inplace)\r\n      (6): ConvTranspose2d(256, 128, kernel_size=(4, 4), stride=(2, 2), padding=(1, 1), bias=False)\r\n      (7): BatchNorm2d(128, eps=1e-05, momentum=0.1, affine=True, track_running_stats=True)\r\n      (8): ReLU(inplace)\r\n      (9): ConvTranspose2d(128, 64, kernel_size=(4, 4), stride=(2, 2), padding=(1, 1), bias=False)\r\n      (10): BatchNorm2d(64, eps=1e-05, momentum=0.1, affine=True, track_running_stats=True)\r\n      (11): ReLU(inplace)\r\n      (12): ConvTranspose2d(64, 3, kernel_size=(4, 4), stride=(2, 2), padding=(1, 1), bias=False)\r\n      (13): Tanh()\r\n    )\r\n  )\r\n  (encoder): Sequential(\r\n    (0): Conv2d(3, 64, kernel_size=(4, 4), stride=(2, 2), padding=(1, 1), bias=False)\r\n    (1): ReLU(inplace)\r\n    (2): Conv2d(64, 128, kernel_size=(4, 4), stride=(2, 2), padding=(1, 1), bias=False)\r\n    (3): ReLU(inplace)\r\n    (4): Conv2d(128, 256, kernel_size=(4, 4), stride=(2, 2), padding=(1, 1), bias=False)\r\n    (5): ReLU(inplace)\r\n    (6): Conv2d(256, 512, kernel_size=(4, 4), stride=(2, 2), padding=(1, 1), bias=False)\r\n    (7): ReLU(inplace)\r\n    (8): Conv2d(512, 64, kernel_size=(4, 4), stride=(1, 1), bias=False)\r\n  )\r\n)\r\n```\r\n\r\nHere is the output when I cycle through the params.requires_grad\r\n\r\n```\r\n*** encoder ***\r\n1 False\r\n2 False\r\n3 False\r\n4 False\r\n5 False\r\n6 False\r\n7 False\r\n8 False\r\n9 False\r\n10 False\r\n11 False\r\n12 False\r\n13 False\r\n14 False\r\n15 False\r\n16 False\r\n17 False\r\n*** generator ***\r\n18 T
…
