…
 (13630, 2) \r\nWhat I expected the model output shape to be is (2,), but instead it seems like it&#39;s expecting (1,) as an output size.\r\n\r\nSo my error comes out like this.\r\n\r\nError when checking target: expected dense_28 to have shape (1,) but got array with shape (2,)\r\n\r\n\r\njust for the reference, \r\n\r\n\r\nModel: &quot;sequential_14&quot;\r\n_________________________________________________________________\r\nLayer (type)                 Output Shape              Param #   \r\n=================================================================\r\ndense_27 (Dense)             (None, 200, 4, 64)        128       \r\n_________________________________________________________________\r\nconv2d_27 (Conv2D)           (None, 200, 4, 64)        36928     \r\n_________________________________________________________________\r\nmax_pooling2d_14 (MaxPooling (None, 100, 2, 64)        0         \r\n_________________________________________________________________\r\ndropout_14 (Dropout)         (None, 100, 2, 64)        0         \r\n_________________________________________________________________\r\nconv2d_28 (Conv2D)           (None, 100, 2, 64)        102464    \r\n_________________________________________________________________\r\nflatten_13 (Flatten)         (None, 12800)             0         \r\n_________________________________________________________________\r\ndense_28 (Dense)             (None, 2)                 25602     \r\n=================================================================\r\nTotal params: 165,122\r\nTrainable params: 165,122\r\nNon-trainable params: 0\r\n\r\nhere&#39;s the summary for my model. I&#39;m not too sure why it&#39;s expecting (1, ).","link":"https://stackoverflow.com/questions/58234360/output-shape-error-of-a-convolutional-neural-network-in-keras","title":"Output shape error of a
…
