…
":"Simba","link":"https://stackoverflow.com/users/5101148/simba"},"comment_count":1,"delete_vote_count":0,"close_vote_count":0,"is_answered":false,"view_count":11,"favorite_count":0,"down_vote_count":0,"up_vote_count":0,"answer_count":0,"score":0,"last_activity_date":1569827405,"creation_date":1569809585,"last_edit_date":1569827405,"question_id":58160738,"share_link":"https://stackoverflow.com/q/58160738","body_markdown":"```\r\nLayer (type)                 Output Shape              Param #   \r\n=================================================================\r\nconv2d_42 (Conv2D)           (None, 32, 128, 128)      320       \r\n_________________________________________________________________\r\nactivation_64 (Activation)   (None, 32, 128, 128)      0         \r\n_________________________________________________________________\r\nconv2d_43 (Conv2D)           (None, 32, 126, 126)      9248      \r\n_________________________________________________________________\r\nactivation_65 (Activation)   (None, 32, 126, 126)      0         \r\n_________________________________________________________________\r\nmax_pooling2d_28 (MaxPooling (None, 32, 63, 63)        0         \r\n_________________________________________________________________\r\ndropout_37 (Dropout)         (None, 32, 63, 63)        0         \r\n_________________________________________________________________\r\nconv2d_44 (Conv2D)           (None, 64, 61, 61)        18496     \r\n_________________________________________________________________\r\nactivation_66 (Activation)   (None, 64, 61, 61)        0         \r\n_________________________________________________________________\r\nmax_pooling2d_29 (MaxPooling (None, 64, 30, 30)        0         \r\n_________________________________________________________________\r\ndropout_38 (Dropout)         (None, 64, 30, 30)        0         \r\n_________________________________________________________________\r\nflatten_13 (Flatten)         (None, 57600)             0         \r\n_________________________________________________________________\r\ndense_25 (Dense)             (None, 64)                3686464   \r\n_________________________________________________________________\r\nactivation_67 (Activation)   (None, 64)                0         \r\n_________________________________________________________________\r\ndropout_39 (Dropout)         (None, 64)                0         \r\n_________________________________________________________________\r\ndense_26 (Dense)             (None, 4)                 260       \r\n_________________________________________________________________\r\nactivation_68 (Activation)   (None, 4)                 0         \r\n=================================================================\r\nTotal params: 3,714,788\r\nTrainable params: 3,714,788\r\nNon-trainable params: 0\r\n_________________________________________________________________\r\nOut[102]: True\r\n```\r\n\r\nHallo everyone i getting Error when checking input: expected conv2d_42_input to have 4 dimensions, but got array with shape `(646, 128,
…
