…
   autoencoder.fit([X_train], [X_train, y_train], epochs=10, batch_size=32)\r\n\r\nThe input (X) has shape (50000,50) but since Conv1D recives a 3D input I reshape to:\r\n\r\n    X = np.reshape(X, (X.shape[0], X.shape[1], -1))\r\n(50000,50,1)\r\n\r\nAnd y (the second output) is\r\n\r\n    y.shape\r\n(50000,1)\r\n\r\nAnd here the model summary\r\n\r\n    Layer (type)                    Output Shape         Param #     Connected to                     \r\n    ==================================================================================================\r\n    input_43 (InputLayer)           (None, 50, 1)        0                                            \r\n    __________________________________________________________________________________________________\r\n    conv1d_169 (Conv1D)             (None, 50, 64)       128         input_43[0][0]                   \r\n    __________________________________________________________________________________________________\r\n    conv1d_170 (Conv1D)             (None, 50, 32)       2080        conv1d_169[0][0]                 \r\n    __________________________________________________________________________________________________\r\n    conv1d_171 (Conv1D)             (None, 50, 32)       1056        conv1d_170[0][0]                 \r\n    __________________________________________________________________________________________________\r\n    conv1d_172 (Conv1D)             (None, 50, 64)       2112        conv1d_171[0][0]                 \r\n    __________________________________________________________________________________________________\r\n    flatten_62 (Flatten)            (None, 1600)         0           conv1d_170[0][0]                 \r\n    __________________________________________________________________________________________________\r\n    decode_output (Conv1D)          (None, 50, 50)       3250        conv1d_172[0][0]                 \r\n    __________________________________________________________________________________________________\r\n    pib_output (Dense)              (None, 1)            1601        flatten_62[0][0]                 \r\n    ==================================================================================================\r\n    Total params: 10,227\r\n    Trainable params: 10,227\r\n    Non-trainable params: 0","link":"https://stackoverflow.com/questions/58157457/keras-conv1d-error-when-checking-target-expected-decoded-output-to-have-shape","title":"Keras CONV1D: Error
…
9778053,"last_edit_date":1569778053,"creation_date":1569777752,"answer_id":58157533,"question_id":58157455,"share_link":"https://stackoverflow.com/a/58157533","body_markdown":"Maybe, \r\n\r\n    !\\s+[A-Z](\\d)\\s{2,}[A-Z]\\((\\d+),(\\d+)?,?(\\d+)?,?(\\d+)?,?\\)\\s{2,}(-?\\d+\\.\\d*)\r\n\r\nmight be close to what you like to write. \r\n\r\n###[Demo](https://regex101.com/r/0gNsdE/1/)\r\n\r\n###Test\r\n\r\n    import re\r\n    \r\n    regex = r&quot;!\\s+[A-Z](\\d)\\s{2,}[A-Z]\\((\\d+),(\\d+)?,?(\\d+)?,?(\\d+)?,?\\)\\s{2,}(-?\\d+\\.\\d*)&quot;\r\n    string = &quot;&quot;&quot;\r\n     ! R1    R(1,2)                1.0881        \r\n     ! R2    R(1,3)                1.0881        \r\n     ! R3    R(1,4)                1.0881      \r\n     ! R4    R(1,5)                1.0881         \r\n     ! A1    A(2,1,3)              109.4712         \r\n     ! A2    A(2,1,4)              109.4712         \r\n     ! A3    A(2,1,5)              109.4712         \r\n     ! A4    A(3,1,4)              109.4712       \r\n     ! A5    A(3,1,5)              109.4712         \r\n     ! A6    A(4,1,5)              109.4712        \r\n     ! D1    D(2,1,4,3)           -120.0           \r\n     ! D2    D(2,1,5,3)            120.0            \r\n     ! D3    D(2,1,5,4)           -120.0           \r\n     ! D4    D(3,1,5,4)            120.0 \r\n    &quot;&quot;&quot;\r\n    \r\n    print(re.findall(regex, string))\r\n\r\n###Output\r\n\r\n&gt; [(&#39;1&#39;, &#39;1&#39;, &#39;2&#39;, &#39;&#39;, &#39;&#39;, &#39;1.0881&#39;), (&#39;2&#39;, &#39;1&#39;, &#39;3&#39;, &#39;&#39;, &#39;&#39;, &#39;1.0881&#39;),\r\n&gt; (&#39;3&#39;, &#39;1&#39;, &#39;4&#39;, &#39;&#39;, &#39;&#39;, &#39;1.0881&#39;), (&#39;4&#39;, &#39;1&#39;, &#39;5&#
…
