…
dding more dense layers in the middle doesn&#39;t seem to help at all.\r\n\r\n6) Reversing the shape of the encoder (so that it goes from fewer kernels per layer to more kernels) doesn&#39;t help either, even though I know that&#39;s traditionally how a convolutional autoencoder looks.\r\n\r\nHere is the full model (the output from model.summary()\r\n\r\n```\r\n_________________________________________________________________\r\nLayer (type)                 Output Shape              Param #   \r\n=================================================================\r\ninput_4 (InputLayer)         (None, 1024, 1024, 1)     0       \r\n_________________________________________________________________\r\nconv2d_40 (Conv2D)           (None, 1024, 1024, 128)   1280      \r\n_________________________________________________________________\r\nmax_pooling2d_19 (MaxPooling (None, 512, 512, 128)     0         \r\n_________________________________________________________________\r\nbatch_normalization_4 (Batch (None, 512, 512, 128)     512       \r\n_________________________________________________________________\r\nconv2d_41 (Conv2D)           (None, 512, 512, 64)      73792\r\n_________________________________________________________________\r\nmax_pooling2d_20 (MaxPooling (None, 256, 256, 64)      0         \r\n_________________________________________________________________\r\nconv2d_42 (Conv2D)           (None, 256, 256, 32)      18464\r\n_________________________________________________________________\r\nmax_pooling2d_21 (MaxPooling (None, 128, 128, 32)      0         \r\n_________________________________________________________________\r\nconv2d_43 (Conv2D)           (None, 128, 128, 16)      4624      \r\n_________________________________________________________________\r\nmax_pooling2d_22 (MaxPooling (None, 64, 64, 16)        0         \r\n_________________________________________________________________\r\nconv2d_44 (Conv2D)           (None, 64, 64, 8)         1160      \r\n_________________________________________________________________\r\nmax_pooling2d_23 (MaxPooling (None, 32, 32, 8)         0         \r\n_________________________________________________________________\r\nflatten_4 (Flatten)          (None, 8192)              0         \r\n_________________________________________________________________\r\ndense_5 (Dense)              (None, 512)               4194816   \r\n_________________________________________________________________\r\nreshape_4 (Reshape)          (None, 8, 8, 8)           0         \r\n_________________________________________________________________\r\nup_sampling2d_22 (UpSampling (None, 16, 16, 8)         0         \r\n_________________________________________________________________\r\nconv2d_45 (Conv2D)           (None, 16, 16, 16)        1168      \r\n_________________________________________________________________\r\nup_sampling2d_23 (UpSampling (None, 32, 32, 16)        0         \r\n_________________________________________________________________\r\nconv2d_46 (Conv2D)           (None, 32, 32, 16)        2320      \r\n_________________________________________________________________\r\nup_sampling2d_24 (UpSampling (None, 64, 64, 16)        0         \r\n_________________________________________________________________\r\nconv2d_47 (Conv2D)           (None, 64, 64, 32)        4640      \r\n_________________________________________________________________\r\nup_sampling2d_25 (UpSampling (None, 128, 128, 32)      0         \r\n_________________________________________________________________\r\nconv2d_48 (Conv2D)           (None, 128, 128, 64)      18496\r\n_________________________________________________________________\r\nup_sampling2d_26 (UpSampling (None, 256, 256, 64)      0         \r\n_________________________________________________________________\r\nconv2d_49 (Conv2D)           (None, 256, 256, 128)     73856     \r\n_________________________________________________________________\r\nup_sampling2d_27 (UpSampling (None, 512, 512, 128)     0         \r\n_________________________________________________________________\r\nconv2d_50 (Conv2D)           (None, 512, 512, 128)     147584\r\n_________________________________________________________________\r\nup_sampling2d_28 (UpSampling (None, 1024, 1024, 128)   0\r\n_________________________________________________________________\r\nconv2d_51 (Conv2D)           (None, 1024, 1024, 1)     1153\r\n=================================================================\r\nTotal params: 4,543,865\r\nTrainable params: 4,543,609\r\nNon-trainable params: 256\r\n          \r\n```","link":"https://stackoverflow.com/questions/58088560/high-loss-from-convolutional-autoencoder-keras","title":"High loss from convolutional autoencoder keras"},{"tags":["python"],"comments":[{"owner":{"reputation":42582,"u
…
