…
nmodel.add(Dropout(0.2))\r\nmodel.add(LSTM(units=96))\r\nmodel.add(Dropout(0.2))\r\nmodel.add(Dense(units=5))\r\n\r\nmodel.compile(loss=&#39;mean_squared_error&#39;, optimizer=&#39;adam&#39;, metrics=[&#39;mse&#39;])\r\n\r\nmodel.fit(x_train, y_train, epochs=epochs, batch_size=batch_size)\r\n```\r\n\r\nModel Summary:\r\n```\r\nModel: &quot;sequential_1&quot;\r\n_________________________________________________________________\r\nLayer (type)                 Output Shape              Param #   \r\n=================================================================\r\nlstm_1 (LSTM)                (None, 500, 96)           39168     \r\n_________________________________________________________________\r\ndropout_1 (Dropout)          (None, 500, 96)           0         \r\n_________________________________________________________________\r\nlstm_2 (LSTM)                (None, 500, 96)           74112     \r\n_________________________________________________________________\r\ndropout_2 (Dropout)          (None, 500, 96)           0         \r\n_________________________________________________________________\r\nlstm_3 (LSTM)                (None, 96)                74112     \r\n_________________________________________________________________\r\ndropout_3 (Dropout)          (None, 96)                0         \r\n_________________________________________________________________\r\ndense_1 (Dense)              (None, 5)                 485       \r\n=================================================================\r\nTotal params: 187,877\r\nTrainable params: 187,877\r\nNon-trainable params: 0\r\n```\r\n\r\nThe problem is `lstm_1` requires input_shape (500, 2) and my data shape is (500, 5):\r\n```\r\nValueError: Error when checking input: expected lstm_1_input to have shape (500, 2) but got array with shape (500, 5)\r\n```\r\n\r\nA
…
