…
=========] - 1s 1ms/sample - loss: 11.7890 - acc: 0.0688 - val_loss: 13.6697 - val_acc: 0.0642\r\n                Epoch 20/20\r\n                436/436 [==============================] - 1s 1ms/sample - loss: 11.7890 - acc: 0.0688 - val_loss: 13.6697 - val_acc: 0.0642\r\n\r\n     \r\nModel summary:\r\n\r\n    Model: &quot;sequential_16&quot;\r\n    _________________________________________________________________\r\n    Layer (type)                 Output Shape              Param #   \r\n    =================================================================\r\n    conv2d_30 (Conv2D)           (None, 38, 38, 64)        640       \r\n    _________________________________________________________________\r\n    activation_44 (Activation)   (None, 38, 38, 64)        0         \r\n    _________________________________________________________________\r\n    max_pooling2d_30 (MaxPooling (None, 19, 19, 64)        0         \r\n    _________________________________________________________________\r\n    conv2d_31 (Conv2D)           (None, 17, 17, 64)        36928     \r\n    _________________________________________________________________\r\n    activation_45 (Activation)   (None, 17, 17, 64)        0         \r\n    _________________________________________________________________\r\n    max_pooling2d_31 (MaxPooling (None, 8, 8, 64)          0         \r\n    _________________________________________________________________\r\n    flatten_14 (Flatten)         (None, 4096)              0         \r\n    _________________________________________________________________\r\n    dense_28 (Dense)             (None, 64)                262208    \r\n    _________________________________________________________________\r\n    dense_29 (Dense)             (None, 1)                 65        \r\n    _________________________________________________________________\r\n    activation_46 (Activation)   (None, 1)                 0         \r\n    =================================================================\r\n    Total params: 299,841\r\n    Trainable params: 299,841\r\n    Non-trainable params: 0\r\n\r\n\r\nCan someone please advise me if this could be the case or do . you see other areas I need to change/fix?\r\n\r\nThanks in advance!\r\n        ","link":"https://stackoverflow.com/questions/58007478/cnn-with-keras-a
…
