…
\r\n        a = layers.Activation(activation=gen_activations[i + 1])(a)\r\n    gen_model = Model(inputs=input_layer, outputs=a)\r\n    gen_model.summary()\r\n    return gen_model\r\n```\r\n```\r\nModel: &quot;model_2&quot;\r\n_________________________________________________________________\r\nLayer (type)                 Output Shape              Param #   \r\n=================================================================\r\ninput_3 (InputLayer)         [(None, 1, 1, 1, 200)]    0         \r\n_________________________________________________________________\r\nconv3d_transpose_4 (Conv3DTr (None, 2, 2, 2, 64)       102464    \r\n_________________________________________________________________\r\nbatch_normalization_8 (Batch (None, 2, 2, 2, 64)       256       \r\n_________________________________________________________________\r\nactivation_5 (Activation)    (None, 2, 2, 2, 64)       0         \r\n_________________________________________________________________\r\nconv3d_transpose_5 (Conv3DTr (None, 4, 4, 4, 32)       131104    \r\n_________________________________________________________________\r\nbatch_normalization_9 (Batch (None, 4, 4, 4, 32)       128       \r\n_________________________________________________________________\r\nactivation_6 (Activation)    (None, 4, 4, 4, 32)       0         \r\n_________________________________________________________________\r\nconv3d_transpose_6 (Conv3DTr (None, 8, 8, 8, 16)       32784     \r\n_________________________________________________________________\r\nbatch_normalization_10 (Batc (None, 8, 8, 8, 16)       64        \r\n_________________________________________________________________\r\nactivation_7 (Activation)    (None, 8, 8, 8, 16)       0         \r\n_________________________________________________________________\r\nconv3d_transpose_7 (Conv3DTr (None, 16, 16, 16, 1)     1025      \r\n_________________________________________________________________\r\nbatch_normalization_11 (Batc (None, 16, 16, 16, 1)     4         \r\n_________________________________________________________________\r\nactivation_8 (Activation)    (None, 16, 16, 16, 1)     0         \r\n=================================================================\r\nTotal params: 267,829\r\nTrainable params: 267,603\r\nNon-trainable params: 226\r\n\r\n```\r\n\r\nThe discriminator:\r\n```python\r\ndef build_discriminator():\r\n    dis_input_shape = (16, 16, 16, 1)\r\n    dis_filters = [16, 32, 64, 1]\r\n    dis_kernel_sizes = [4, 4, 4, 4]\r\n    dis_strides = [2, 2, 2, 2]\r\n    
…
odel = Model(inputs=dis_input_layer, outputs=a)\r\n    print(dis_model.summary())\r\n    return dis_model\r\n\r\n```\r\n```\r\n_________________________________________________________________\r\nModel: &quot;model_3&quot;\r\n_________________________________________________________________\r\nLayer (type)                 Output Shape              Param #   \r\n=================================================================\r\ninput_4 (InputLayer)         [(None, 16, 16, 16, 1)]   0         \r\n_________________________________________________________________\r\nconv3d_4 (Conv3D)            (None, 8, 8, 8, 16)       1040      \r\n_________________________________________________________________\r\nbatch_normalization_12 (Batc (None, 8, 8, 8, 16)       64        \r\n_________________________________________________________________\r\nleaky_re_lu_3 (LeakyReLU)    (None, 8, 8, 8, 16)       0         \r\n_________________________________________________________________\r\nconv3d_5 (Conv3D)            (None, 4, 4, 4, 32)       32800     \r\n_________________________________________________________________\r\nbatch_normalization_13 (Batc (None, 4, 4, 4, 32)       128       \r\n_________________________________________________________________\r\nleaky_re_lu_4 (LeakyReLU)    (None, 4, 4, 4, 32)       0         \r\n_________________________________________________________________\r\nconv3d_6 (Conv3D)            (None, 2, 2, 2, 64)       131136    \r\n_________________________________________________________________\r\nbatch_normalization_14 (Batc (None, 2, 2, 2, 64)       256       \r\n_________________________________________________________________\r\nleaky_re_lu_5 (LeakyReLU)    (None, 2, 2, 2, 64)       0         \r\n_________________________________________________________________\r\nconv3d_7 (Conv3D)            (None, 1, 1, 1, 1)        4097      \r\n_________________________________________________________________\r\nbatch_normalization_15 (Batc (None, 1, 1, 1, 1)        4         \r\n_________________________________________________________________\r\nactivation_9 (Activation)    (None, 1, 1, 1, 1)        0         \r\n=================================================================\r\nTotal params: 169,525\r\nTrainable params: 169,299\r\nNon-trainable params: 226\r\n_________________________________________________________________\r\n```\r\n\r\nAn adversarial model is then created:\r\n```python\r\nadversarial_model = tf.keras.models.Sequential()\r\nadversarial_model.add(generator)\r\nadversarial_m
…
