…
-&gt;\r\n\r\n    C:\\Users\\elinor\\AppData\\Local\\Programs\\Python\\Python36\\python.exe C:/Users/elinor/Desktop/Intrcpt/ddqn.py\r\n    2019-10-15 13:14:15.946083: I tensorflow/core/platform/cpu_feature_guard.cc:142] Your CPU supports instructions that this TensorFlow binary was not compiled to use: AVX2\r\n    Model: &quot;sequential&quot;\r\n    _________________________________________________________________\r\n    Layer (type)                 Output Shape              Param #   \r\n    =================================================================\r\n    conv2d (Conv2D)              (None, 30, 30, 32)        896       \r\n    _________________________________________________________________\r\n    max_pooling2d (MaxPooling2D) (None, 15, 15, 32)        0         \r\n    _________________________________________________________________\r\n    conv2d_1 (Conv2D)            (None, 13, 13, 64)        18496     \r\n    _________________________________________________________________\r\n    max_pooling2d_1 (MaxPooling2 (None, 6, 6, 64)          0         \r\n    _________________________________________________________________\r\n    conv2d_2 (Conv2D)            (None, 4, 4, 64)          36928     \r\n    _________________________________________________________________\r\n    flatten (Flatten)            (None, 1024)              0         \r\n    _________________________________________________________________\r\n    dense (Dense)                (None, 64)                65600     \r\n    _________________________________________________________________\r\n    dense_1 (Dense)              (None, 10)                650       \r\n    =================================================================\r\n    Total params: 122,570\r\n    Trainable params: 122,570\r\n    Non-trainable params: 0\r\n    _________________________________________________________________\r\n    Model: &quot;sequential_1&quot;\r\n    _________________________________________________________________\r\n    Layer (type)                 Output Shape              Param #   \r\n    =================================================================\r\n    conv2d_3 (Conv2D)            (None, 30, 30, 32)        896       \r\n    _________________________________________________________________\r\n    max_pooling2d_2 (MaxPooling2 (None, 15, 15, 32)        0         \r\n    _________________________________________________________________\r\n    conv2d_4 (Conv2D)            (None, 13, 13, 64)        18496     \r\n    _________________________________________________________________\r\n    max_pooling2d_3 (MaxPooling2 (None, 6, 6, 64)          0         \r\n    _________________________________________________________________\r\n    conv2d_5 (Conv2D)            (None, 4, 4, 64)          36928     \r\n    _________________________________________________________________\r\n    flatten_1 (Flatten)          (None, 1024)              0         \r\n    _________________________________________________________________\r\n    dense_2 (Dense)              (None, 64)                65600     \r\n    _________________________________________________________________\r\n    dense_3 (Dense)              (None, 10)                650       \r\n    =================================================================\r\n    Total params: 122,570\r\n    Trainable params: 122,570\r\n    Non-trainable params: 0\r\n    _________________________________________________________________\r\n    Traceback (most recent call last):\r\n      File &quot;C:/Users/elinor/Desktop/Intrcpt/ddqn.py&quot;, line 162, in &lt;module&gt;\r\n        exec_
…
