…
unt":1,"score":0,"last_activity_date":1570985541,"creation_date":1570964293,"question_id":58362892,"share_link":"https://stackoverflow.com/q/58362892","body_markdown":"I code with pytorch and I want to use [resnet-18][1] as backbone of Faster R-RCNN. When I print structure of [resnet18][1], this is the output:\r\n\r\n    &gt;&gt;import torch\r\n    &gt;&gt;import torchvision\r\n    &gt;&gt;import numpy as np\r\n    &gt;&gt;import torchvision.models as models\r\n    \r\n    &gt;&gt;resnet18 = models.resnet18(pretrained=False)\r\n    &gt;&gt;print(resnet18)\r\n\r\n\r\n    ResNet(\r\n      (conv1): Conv2d(3, 64, kernel_size=(7, 7), stride=(2, 2), padding=(3, 3), bias=False)\r\n      (bn1): BatchNorm2d(64, eps=1e-05, momentum=0.1, affine=True, track_running_stats=True)\r\n      (relu): ReLU(inplace=True)\r\n      (maxpool): MaxPool2d(kernel_size=3, stride=2, padding=1, dilation=1, ceil_mode=False)\r\n      (layer1): Sequential(\r\n        (0): BasicBlock(\r\n          (conv1): Conv2d(64, 64, kernel_size=(3, 3), stride=(1, 1), padding=(1, 1), bias=False)\r\n          (bn1): BatchNorm2d(64, eps=1e-05, momentum=0.1, affine=True, track_running_stats=True)\r\n          (relu): ReLU(inplace=True)\r\n          (conv2): Conv2d(64, 64, kernel_size=(3, 3), stride=(1, 1), padding=(1, 1), bias=False)\r\n          (bn2): BatchNorm2d(64, eps=1e-05, momentum=0.1, affine=True, track_running_stats=True)\r\n        )\r\n        (1): BasicBlock(\r\n          (conv1): Conv2d(64, 64, kernel_size=(3, 3), stride=(1, 1), padding=(1, 1), bias=False)\r\n          (bn1): BatchNorm2d(64, eps=1e-05, momentum=0.1, affine=True, track_running_stats=True)\r\n          (relu): ReLU(inplace=True)\r\n          (conv2): Conv2d(64, 64, kernel_size=(3, 3), stride=(1, 1), padding=(1, 1), bias=False)\r\n          (bn2): BatchNorm2d(64, eps=1e-05, momentum=0.1, affine=True, track_running_stats=True)\r\n        )\r\n      )\r\n      (layer2): Sequential(\r\n        (0): BasicBlock(\r\n          (conv1): Conv2d(64, 128, kernel_size=(3, 3), stride=(2, 2), padding=(1, 1), bias=False)\r\n          (bn1): BatchNorm2d(128, eps=1e-05, momentum=0.1, affine=True, track_running_stats=True)\r\n          (relu): ReLU(inplace=True)\r\n          (conv2): Conv2d(128, 128, kernel_size=(3, 3), stride=(1, 1), padding=(1, 1), bias=False)\r\n          (bn2): BatchNorm2d(128, eps=1e-05, momentum=0.1, affine=True, track_running_stats=True)\r\n          (downsample): Sequential(\r\n            (0): Conv2d(64, 128, kernel_size=(1, 1), stride=(2, 2), bias=False)\r\n            (1): BatchNorm2d(128, eps=1e-05, momentum=0.1, affine=True, track_running_stats=True)\r\n          )\r\n        )\r\n        (1): BasicBlock(\r\n          (conv1): Conv2d(128, 128, kernel_size=(3, 3), stride=(1, 1), padding=(1, 1), bias=False)\r\n          (bn1): BatchNorm2d(128, eps=1e-05, momentum=0.1, affine=True, track_running_stats=True)\r\n          (relu): ReLU(inplace=True)\r\n          (conv2): Conv2d(128, 128, kernel_size=(3, 3), stride=(1, 1), padding=(1, 1), bias=False)\r\n          (bn2): BatchNorm2d(128, eps=1e-05, momentum=0.1, affine=True, track_running_stats=True)\r\n        )\r\n      )\r\n      (layer3): Sequential(\r\n        (0): BasicBlock(\r\n          (conv1): Conv2d(128, 256, kernel_size=(3, 3), stride=(2, 2), padding=(1, 1), bias=False)\r\n          (bn1): BatchNorm2d(256, eps=1e-05, momentum=0.1, affine=True, track_running_stats=True)\r\n          (relu): ReLU(inplace=True)\r\n          (conv2): Conv2d(256, 256, kernel_size=(3, 3), stride=(1, 1), padding=(1, 1), bias=False)\r\n          (bn2): BatchNorm2d(256, eps=1e-05, momentum=0.1, affine=True, track_running_stats=True)\r\n          (downsample): Sequential(\r\n            (0): Conv2d(128, 256, kernel_size=(1, 1), stride=(2, 2), bias=False)\r\n            (1): BatchNorm2d(256, eps=1e-05, momentum=0.1, affine=True, track_running_stats=True)\r\n          )\r\n        )\r\n        (1): BasicBlock(\r\n          (conv1): Conv2d(256, 256, kernel_size=(3, 3), stride=(1, 1), padding=(1, 1), bias=False)\r\n          (bn1): BatchNorm2d(256, eps=1e-05, momentum=0.1, affine=True, track_running_stats=True)\r\n          (relu): ReLU(inplace=True)\r\n          (conv2): Conv2d(256, 256, kernel_size=(3, 3), stride=(1, 1), padding=(1, 1), bias=False)\r\n          (bn2): BatchNorm2d(256, eps=1e-05, momentum=0.1, affine=True, track_running_stats=True)\r\n        )\r\n      )\r\n      (layer4): Sequential(\r\n        (0): BasicBlock(\r\n          (conv1): Conv2d(256, 512, kernel_size=(3, 3), stride=(2, 2), padding=(1, 1), bias=False)\r\n          (bn1): BatchNorm2d(512, eps=1e-05, momentum=0.1, affine=True, track_running_stats=True)\r\n          (relu): ReLU(inplace=True)\r\n          (conv2): Conv2d(512, 512, kernel_size=(3, 3), stride=(1, 1), padding=(1, 1), bias=False)\r\n          (bn2): BatchNorm2d(512, eps=1e-05, momentum=0.1, affine=True, track_running_stats=True)\r\n          (downsample): Sequential(\r\n            (0): Conv2d(256, 512, kernel_size=(1, 1), stride=(2, 2), bias=False)\r\n            (1): BatchNorm2d(512, eps=1e-05, momentum=0.1, affine=True, track_running_stats=True)\r\n          )\r\n        )\r\n        (1): BasicBlock(\r\n          (conv1): Conv2d(512, 512, kernel_size=(3, 3), stride=(1, 1), padding=(1, 1), bias=False)\r\n          (bn1): BatchNorm2d(512, eps=1e-05, momentum=0.1, affine=True, track_running_stats=True)\r\n          (relu): ReLU(inplace=True)\r\n          (conv2): Conv2d(512, 512, kernel_size=(3, 3), stride=(1, 1), padding=(1, 1), bias=False)\r\n          (bn2): BatchNorm2d(512, eps=1e-05, momentum=0.1, affine=True, track_running_stats=True)\r\n        )\r\n      )\r\n      (avgpool): AdaptiveAvgPool2d(output_size=(1, 1))\r\n      (fc): Linear(in_features=512, out_features=1000, bias=True)\r\n    )\r\n\r\nMy question is, until which layer it is feature extractor?  is `AdaptiveAvgPool2d` should be part of backbone of Faster R-CNN?\r\n\r\nIn [this toturial][2], it is shown how to train a Mask R-CNN with an arbitrary backbone, I want to do the same thing with Faster R-CNN and train a Faster R-CNN with resnet-18 but until which layer should
…
