…
r`. \r\n\r\n```python\r\nclass MyAct(Layer):\r\n    def __init__(self):\r\n        super().__init__()\r\n    \r\n    def call(self, inputs):\r\n        return (K.sigmoid(inputs) * 5) - 1 \r\n\r\nspec_input = Input(shape=(10,10))\r\nx = Flatten()(spec_input)\r\nfor layer in range(3):\r\n    x = Dense(512)(x)\r\n    x = MyAct()(x)\r\n\r\nmodel = Model(spec_input, x)\r\nmodel.summary()\r\n```\r\n\r\n**Output**\r\n```python\r\n# Layer (type)                 Output Shape              Param #   \r\n# =================================================================\r\n# input_1 (InputLayer)         (None, 10, 10)            0         \r\n# _________________________________________________________________\r\n# flatten_1 (Flatten)          (None, 100)               0         \r\n# _________________________________________________________________\r\n# dense_1 (Dense)              (None, 512)               51712     \r\n# _________________________________________________________________\r\n# my_act_1 (MyAct)             (None, 512)               0         \r\n# _________________________________________________________________\r\n# dense_2 (Dense)              (None, 512)               262656    \r\n# _________________________________________________________________\r\n# my_act_2 (MyAct)             (None, 512)               0         \r\n# _________________________________________________________________\r\n# dense_3 (Dense)              (None, 512)               262656    \r\n# _________________________________________________________________\r\n# my_act_3 (MyAct)             (None, 512)               0         \r\n# =================================================================\r\n# Total params: 577,024\r\n# Trainable params: 577,024\r\n# Non-trainable params: 0\r\n```\r\n\r\n\r\n  [1]: https://github.com/keras-team/keras/blob/2b1f8ed204609954ab04f7a8c123d400f929e9fb/keras/engine/base_layer.py#L149","link":"https://stackoverflow.com/questions/58349239/how-to-customize-keras-layer-names-and-
…
