…
,"view_count":20,"favorite_count":0,"down_vote_count":0,"up_vote_count":2,"answer_count":1,"score":2,"last_activity_date":1570907214,"creation_date":1570821989,"last_edit_date":1570822345,"question_id":58347382,"share_link":"https://stackoverflow.com/q/58347382","body_markdown":"I am trying to classify image patches into 10 different categories using a neural network. My idea (borrowed from [this][1] article is to use the first 5 layers of a pretrained VGG network and apply a 1x1 convolution to this encoder. So, given the first 5 layers of a VGG network:\r\n\r\n\r\n```\r\nSequential(\r\n    (0): Conv2d(3, 64, kernel_size=(3, 3), stride=(1, 1), padding=(1, 1))\r\n    (1): ReLU(inplace=True)\r\n    (2): Conv2d(64, 64, kernel_size=(3, 3), stride=(1, 1), padding=(1, 1))\r\n    (3): ReLU(inplace=True)\r\n    (4): MaxPool2d(kernel_size=2, stride=2, padding=0, dilation=1, ceil_mode=False)\r\n    (5): Conv2d(64, 128, kernel_size=(3, 3), stride=(1, 1), padding=(1, 1))\r\n    (6): ReLU(inplace=True)\r\n    (7): Conv2d(128, 128, kernel_size=(3, 3), stride=(1, 1), padding=(1, 1))\r\n    (8): ReLU(inplace=True)\r\n    (9): MaxPool2d(kernel_size=2, stride=2, padding=0, dilation=1, ceil_mode=False)\r\n    (10): Conv2d(128, 256, kernel_size=(3, 3), stride=(1, 1), padding=(1, 1))\r\n    (11): ReLU(inplace=True)\r\n    (12): Conv2d(256, 256, kernel_size=(3, 3), stride=(1, 1), padding=(1, 1))\r\n    (13): ReLU(inplace=True)\r\n    (14): Conv2d(256, 256, kernel_size=(3, 3), stride=(1, 1), padding=(1, 1))\r\n    (15): ReLU(inplace=True)\r\n    (16): MaxPool2d(kernel_size=2, stride=2, padding=0, dilation=1, ceil_mode=False)\r\n    (17): Conv2d(256, 512, kernel_size=(3, 3), stride=(1, 1), padding=(1, 1))\r\n    (18): ReLU(inplace=True)\r\n    (19): Conv2d(512, 512, kernel_size=(3, 3), stride=(1, 1), padding=(1, 1))\r\n    (20): ReLU(inplace=True)\r\n    (21): Conv2d(512, 512, kernel_size=(3, 3), stride=(1, 1), padding=(1, 1))\r\n    (22): ReLU(inplace=True)\r\n    (23): MaxPool2d(kernel_size=2, stride=2, padding=0, dilation=1, ceil_mode=False)\r\n    (24): Conv2d(512, 512, kernel_size=(3, 3), stride=(1, 1), padding=(1, 1))\r\n    (25): ReLU(inplace=True)\r\n    (26): Conv2d(512, 512, kernel_size=(3, 3), stride=(1, 1), padding=(1, 1))\r\n    (27): ReLU(inplace=True)\r\n    (28): Conv2d(512, 512, kernel_size=(3, 3), stride=(1, 1), padding=(1, 1))\r\n    (29): ReLU(inplace=True)\r\n    (30): MaxPool2d(kernel_size=2, stride=2, padding=0, dilation=1, ceil_mode=False)\r\n)\r\n\r\n```\r\n\r\nHow can I add a layer to classify each activation into n_classes? I am trying with a 1x1 convolution from 512 (number of filters in last layer) to n_classes, something like this:\r\n\r\n```\r\nnn.
…
