…
moved in a future version.\r\n    Instructions for updating:\r\n    Call initializer instance with the dtype argument instead of passing it to the constructor\r\n    Model: &quot;elephas_Model&quot;\r\n    _________________________________________________________________\r\n    Layer (type)                 Output Shape              Param #   \r\n    =================================================================\r\n    input_1 (InputLayer)         [(None, 30, 1)]           0         \r\n    _________________________________________________________________\r\n    lstm (LSTM)                  (None, 30, 50)            10400     \r\n    _________________________________________________________________\r\n    dropout (Dropout)            (None, 30, 50)            0         \r\n    _________________________________________________________________\r\n    lstm_1 (LSTM)                (None, 30, 50)            20200     \r\n    _________________________________________________________________\r\n    dropout_1 (Dropout)          (None, 30, 50)            0         \r\n    _________________________________________________________________\r\n    lstm_2 (LSTM)                (None, 30, 50)            20200     \r\n    _________________________________________________________________\r\n    dropout_2 (Dropout)          (None, 30, 50)            0         \r\n    _________________________________________________________________\r\n    lstm_3 (LSTM)                (None, 30, 50)            20200     \r\n    _________________________________________________________________\r\n    dropout_3 (Dropout)          (None, 30, 50)            0         \r\n    _________________________________________________________________\r\n    flatten (Flatten)            (None, 1500)              0         \r\n    _________________________________________________________________\r\n    dense (Dense)                (None, 1)                 1501      \r\n    =================================================================\r\n    Total params: 72,501\r\n    Trainable params: 72,501\r\n    Non-trainable params: 0\r\n    _________________________________________________________________\r\n    None\r\n    WARNING:tensorflow:From /Users/vnovelo/anaconda3/lib/python3.7/site-packages/tensorflow/python/ops/init_ops.py:97: calling GlorotUniform.
…
