…
swer_count":0,"score":0,"last_activity_date":1571781156,"creation_date":1571781156,"question_id":58512780,"share_link":"https://stackoverflow.com/q/58512780","body_markdown":"I&#39;m currently playing around with data augmentation in Keras. My model looks as follows:\r\n\r\n    Layer (type)                 Output Shape              Param #   \r\n    =================================================================\r\n    input_2 (InputLayer)         [(None, 1024, 1280, 3)]   0         \r\n    _________________________________________________________________\r\n    lambda_1 (Lambda)            (None, 128, 128, 3)       0         \r\n    _________________________________________________________________\r\n    conv2d_2 (Conv2D)            (None, 126, 126, 32)      896       \r\n    _________________________________________________________________\r\n    conv2d_3 (Conv2D)            (None, 42, 42, 32)        9248      \r\n    _________________________________________________________________\r\n    max_pooling2d_1 (MaxPooling2 (None, 21, 21, 32)        0         \r\n    _________________________________________________________________\r\n    dropout_2 (Dropout)          (None, 21, 21, 32)        0         \r\n    _________________________________________________________________\r\n    flatten_1 (Flatten)          (None, 14112)             0         \r\n    _________________________________________________________________\r\n    dense_2 (Dense)              (None, 128)               1806464   \r\n    _________________________________________________________________\r\n    dropout_3 (Dropout)          (None, 128)               0         \r\n    _________________________________________________________________\r\n    dense_3 (Dense)              (None, 6)                 774       \r\n    =================================================================\r\n    Total params: 1,817,382\r\n    Trainable params: 1,817,382\r\n    Non-trainable params: 0\r\n    _________________________________________________________________\r\n\r\nThe lambda layer basically scales the image.\r\n\r\nTraining worked ok-ish, however, I do not really have enough data, hence, generalisation w
…
